{"format":"layers-model","convertedBy":null,"generatedBy":"TensorFlow.js tfjs-layers v4.22.0","weightSpecs":[{"name":"conv2d_Conv2D1/kernel","dtype":"float32","shape":[3,3,4,16]},{"name":"conv2d_Conv2D1/bias","dtype":"float32","shape":[16]},{"name":"batch_normalization_BatchNormalization1/gamma","dtype":"float32","shape":[16]},{"name":"batch_normalization_BatchNormalization1/beta","dtype":"float32","shape":[16]},{"name":"conv2d_Conv2D2/kernel","dtype":"float32","shape":[3,3,16,16]},{"name":"conv2d_Conv2D2/bias","dtype":"float32","shape":[16]},{"name":"batch_normalization_BatchNormalization2/gamma","dtype":"float32","shape":[16]},{"name":"batch_normalization_BatchNormalization2/beta","dtype":"float32","shape":[16]},{"name":"conv2d_Conv2D3/kernel","dtype":"float32","shape":[3,3,16,16]},{"name":"conv2d_Conv2D3/bias","dtype":"float32","shape":[16]},{"name":"batch_normalization_BatchNormalization3/gamma","dtype":"float32","shape":[16]},{"name":"batch_normalization_BatchNormalization3/beta","dtype":"float32","shape":[16]},{"name":"conv2d_Conv2D4/kernel","dtype":"float32","shape":[3,3,16,16]},{"name":"conv2d_Conv2D4/bias","dtype":"float32","shape":[16]},{"name":"batch_normalization_BatchNormalization4/gamma","dtype":"float32","shape":[16]},{"name":"batch_normalization_BatchNormalization4/beta","dtype":"float32","shape":[16]},{"name":"conv2d_Conv2D5/kernel","dtype":"float32","shape":[3,3,16,16]},{"name":"conv2d_Conv2D5/bias","dtype":"float32","shape":[16]},{"name":"batch_normalization_BatchNormalization5/gamma","dtype":"float32","shape":[16]},{"name":"batch_normalization_BatchNormalization5/beta","dtype":"float32","shape":[16]},{"name":"conv2d_Conv2D6/kernel","dtype":"float32","shape":[3,3,16,16]},{"name":"conv2d_Conv2D6/bias","dtype":"float32","shape":[16]},{"name":"batch_normalization_BatchNormalization6/gamma","dtype":"float32","shape":[16]},{"name":"batch_normalization_BatchNormalization6/beta","dtype":"float32","shape":[16]},{"name":"conv2d_Conv2D7/kernel","dtype":"float32","shape":[3,3,16,16]},{"name":"conv2d_Conv2D7/bias","dtype":"float32","shape":[16]},{"name":"batch_normalization_BatchNormalization7/gamma","dtype":"float32","shape":[16]},{"name":"batch_normalization_BatchNormalization7/beta","dtype":"float32","shape":[16]},{"name":"conv2d_Conv2D8/kernel","dtype":"float32","shape":[3,3,16,16]},{"name":"conv2d_Conv2D8/bias","dtype":"float32","shape":[16]},{"name":"batch_normalization_BatchNormalization8/gamma","dtype":"float32","shape":[16]},{"name":"batch_normalization_BatchNormalization8/beta","dtype":"float32","shape":[16]},{"name":"conv2d_Conv2D9/kernel","dtype":"float32","shape":[3,3,16,16]},{"name":"conv2d_Conv2D9/bias","dtype":"float32","shape":[16]},{"name":"batch_normalization_BatchNormalization9/gamma","dtype":"float32","shape":[16]},{"name":"batch_normalization_BatchNormalization9/beta","dtype":"float32","shape":[16]},{"name":"conv2d_Conv2D10/kernel","dtype":"float32","shape":[3,3,16,16]},{"name":"conv2d_Conv2D10/bias","dtype":"float32","shape":[16]},{"name":"batch_normalization_BatchNormalization10/gamma","dtype":"float32","shape":[16]},{"name":"batch_normalization_BatchNormalization10/beta","dtype":"float32","shape":[16]},{"name":"conv2d_Conv2D11/kernel","dtype":"float32","shape":[3,3,16,16]},{"name":"conv2d_Conv2D11/bias","dtype":"float32","shape":[16]},{"name":"batch_normalization_BatchNormalization11/gamma","dtype":"float32","shape":[16]},{"name":"batch_normalization_BatchNormalization11/beta","dtype":"float32","shape":[16]},{"name":"conv2d_Conv2D13/kernel","dtype":"float32","shape":[1,1,16,2]},{"name":"conv2d_Conv2D13/bias","dtype":"float32","shape":[2]},{"name":"batch_normalization_BatchNormalization13/gamma","dtype":"float32","shape":[2]},{"name":"batch_normalization_BatchNormalization13/beta","dtype":"float32","shape":[2]},{"name":"conv2d_Conv2D12/kernel","dtype":"float32","shape":[1,1,16,2]},{"name":"conv2d_Conv2D12/bias","dtype":"float32","shape":[2]},{"name":"batch_normalization_BatchNormalization12/gamma","dtype":"float32","shape":[2]},{"name":"batch_normalization_BatchNormalization12/beta","dtype":"float32","shape":[2]},{"name":"dense_Dense2/kernel","dtype":"float32","shape":[232,16]},{"name":"dense_Dense2/bias","dtype":"float32","shape":[16]},{"name":"dense_Dense3/kernel","dtype":"float32","shape":[16,1]},{"name":"dense_Dense3/bias","dtype":"float32","shape":[1]},{"name":"dense_Dense1/kernel","dtype":"float32","shape":[232,24]},{"name":"dense_Dense1/bias","dtype":"float32","shape":[24]},{"name":"batch_normalization_BatchNormalization1/moving_mean","dtype":"float32","shape":[16]},{"name":"batch_normalization_BatchNormalization1/moving_variance","dtype":"float32","shape":[16]},{"name":"batch_normalization_BatchNormalization2/moving_mean","dtype":"float32","shape":[16]},{"name":"batch_normalization_BatchNormalization2/moving_variance","dtype":"float32","shape":[16]},{"name":"batch_normalization_BatchNormalization3/moving_mean","dtype":"float32","shape":[16]},{"name":"batch_normalization_BatchNormalization3/moving_variance","dtype":"float32","shape":[16]},{"name":"batch_normalization_BatchNormalization4/moving_mean","dtype":"float32","shape":[16]},{"name":"batch_normalization_BatchNormalization4/moving_variance","dtype":"float32","shape":[16]},{"name":"batch_normalization_BatchNormalization5/moving_mean","dtype":"float32","shape":[16]},{"name":"batch_normalization_BatchNormalization5/moving_variance","dtype":"float32","shape":[16]},{"name":"batch_normalization_BatchNormalization6/moving_mean","dtype":"float32","shape":[16]},{"name":"batch_normalization_BatchNormalization6/moving_variance","dtype":"float32","shape":[16]},{"name":"batch_normalization_BatchNormalization7/moving_mean","dtype":"float32","shape":[16]},{"name":"batch_normalization_BatchNormalization7/moving_variance","dtype":"float32","shape":[16]},{"name":"batch_normalization_BatchNormalization8/moving_mean","dtype":"float32","shape":[16]},{"name":"batch_normalization_BatchNormalization8/moving_variance","dtype":"float32","shape":[16]},{"name":"batch_normalization_BatchNormalization9/moving_mean","dtype":"float32","shape":[16]},{"name":"batch_normalization_BatchNormalization9/moving_variance","dtype":"float32","shape":[16]},{"name":"batch_normalization_BatchNormalization10/moving_mean","dtype":"float32","shape":[16]},{"name":"batch_normalization_BatchNormalization10/moving_variance","dtype":"float32","shape":[16]},{"name":"batch_normalization_BatchNormalization11/moving_mean","dtype":"float32","shape":[16]},{"name":"batch_normalization_BatchNormalization11/moving_variance","dtype":"float32","shape":[16]},{"name":"batch_normalization_BatchNormalization13/moving_mean","dtype":"float32","shape":[2]},{"name":"batch_normalization_BatchNormalization13/moving_variance","dtype":"float32","shape":[2]},{"name":"batch_normalization_BatchNormalization12/moving_mean","dtype":"float32","shape":[2]},{"name":"batch_normalization_BatchNormalization12/moving_variance","dtype":"float32","shape":[2]}],"modelTopology":{"config":{"name":"model1","layers":[{"name":"input1","config":{"name":"input1","dtype":"float32","sparse":false,"batch_input_shape":[null,29,4,4]},"class_name":"InputLayer","inbound_nodes":[]},{"name":"conv2d_Conv2D1","config":{"name":"conv2d_Conv2D1","filters":16,"padding":"same","strides":[1,1],"use_bias":true,"trainable":true,"activation":"linear","data_format":"channels_last","kernel_size":[3,3],"dilation_rate":[1,1],"bias_constraint":null,"bias_initializer":{"config":{},"class_name":"Zeros"},"bias_regularizer":null,"kernel_constraint":null,"kernel_initializer":{"config":{"mode":"fan_avg","seed":null,"scale":1,"distribution":"normal"},"class_name":"VarianceScaling"},"kernel_regularizer":null,"activity_regularizer":null},"class_name":"Conv2D","inbound_nodes":[[["input1",0,0,{}]]]},{"name":"batch_normalization_BatchNormalization1","config":{"axis":-1,"name":"batch_normalization_BatchNormalization1","scale":true,"center":true,"epsilon":0.001,"momentum":0.99,"trainable":true,"beta_constraint":null,"beta_initializer":{"config":{},"class_name":"Zeros"},"beta_regularizer":null,"gamma_constraint":null,"gamma_initializer":{"config":{},"class_name":"Ones"},"gamma_regularizer":null,"moving_mean_initializer":{"config":{},"class_name":"Zeros"},"moving_variance_initializer":{"config":{},"class_name":"Ones"}},"class_name":"BatchNormalization","inbound_nodes":[[["conv2d_Conv2D1",0,0,{}]]]},{"name":"leaky_re_lu_LeakyReLU1","config":{"name":"leaky_re_lu_LeakyReLU1","alpha":0.3,"trainable":true},"class_name":"LeakyReLU","inbound_nodes":[[["batch_normalization_BatchNormalization1",0,0,{}]]]},{"name":"conv2d_Conv2D2","config":{"name":"conv2d_Conv2D2","filters":16,"padding":"same","strides":[1,1],"use_bias":true,"trainable":true,"activation":"linear","data_format":"channels_last","kernel_size":[3,3],"dilation_rate":[1,1],"bias_constraint":null,"bias_initializer":{"config":{},"class_name":"Zeros"},"bias_regularizer":null,"kernel_constraint":null,"kernel_initializer":{"config":{"mode":"fan_avg","seed":null,"scale":1,"distribution":"normal"},"class_name":"VarianceScaling"},"kernel_regularizer":null,"activity_regularizer":null},"class_name":"Conv2D","inbound_nodes":[[["leaky_re_lu_LeakyReLU1",0,0,{}]]]},{"name":"batch_normalization_BatchNormalization2","config":{"axis":-1,"name":"batch_normalization_BatchNormalization2","scale":true,"center":true,"epsilon":0.001,"momentum":0.99,"trainable":true,"beta_constraint":null,"beta_initializer":{"config":{},"class_name":"Zeros"},"beta_regularizer":null,"gamma_constraint":null,"gamma_initializer":{"config":{},"class_name":"Ones"},"gamma_regularizer":null,"moving_mean_initializer":{"config":{},"class_name":"Zeros"},"moving_variance_initializer":{"config":{},"class_name":"Ones"}},"class_name":"BatchNormalization","inbound_nodes":[[["conv2d_Conv2D2",0,0,{}]]]},{"name":"leaky_re_lu_LeakyReLU2","config":{"name":"leaky_re_lu_LeakyReLU2","alpha":0.3,"trainable":true},"class_name":"LeakyReLU","inbound_nodes":[[["batch_normalization_BatchNormalization2",0,0,{}]]]},{"name":"conv2d_Conv2D3","config":{"name":"conv2d_Conv2D3","filters":16,"padding":"same","strides":[1,1],"use_bias":true,"trainable":true,"activation":"linear","data_format":"channels_last","kernel_size":[3,3],"dilation_rate":[1,1],"bias_constraint":null,"bias_initializer":{"config":{},"class_name":"Zeros"},"bias_regularizer":null,"kernel_constraint":null,"kernel_initializer":{"config":{"mode":"fan_avg","seed":null,"scale":1,"distribution":"normal"},"class_name":"VarianceScaling"},"kernel_regularizer":null,"activity_regularizer":null},"class_name":"Conv2D","inbound_nodes":[[["leaky_re_lu_LeakyReLU2",0,0,{}]]]},{"name":"batch_normalization_BatchNormalization3","config":{"axis":-1,"name":"batch_normalization_BatchNormalization3","scale":true,"center":true,"epsilon":0.001,"momentum":0.99,"trainable":true,"beta_constraint":null,"beta_initializer":{"config":{},"class_name":"Zeros"},"beta_regularizer":null,"gamma_constraint":null,"gamma_initializer":{"config":{},"class_name":"Ones"},"gamma_regularizer":null,"moving_mean_initializer":{"config":{},"class_name":"Zeros"},"moving_variance_initializer":{"config":{},"class_name":"Ones"}},"class_name":"BatchNormalization","inbound_nodes":[[["conv2d_Conv2D3",0,0,{}]]]},{"name":"add_Add1","config":{"name":"add_Add1","trainable":true},"class_name":"Add","inbound_nodes":[[["leaky_re_lu_LeakyReLU1",0,0,{}],["batch_normalization_BatchNormalization3",0,0,{}]]]},{"name":"leaky_re_lu_LeakyReLU3","config":{"name":"leaky_re_lu_LeakyReLU3","alpha":0.3,"trainable":true},"class_name":"LeakyReLU","inbound_nodes":[[["add_Add1",0,0,{}]]]},{"name":"conv2d_Conv2D4","config":{"name":"conv2d_Conv2D4","filters":16,"padding":"same","strides":[1,1],"use_bias":true,"trainable":true,"activation":"linear","data_format":"channels_last","kernel_size":[3,3],"dilation_rate":[1,1],"bias_constraint":null,"bias_initializer":{"config":{},"class_name":"Zeros"},"bias_regularizer":null,"kernel_constraint":null,"kernel_initializer":{"config":{"mode":"fan_avg","seed":null,"scale":1,"distribution":"normal"},"class_name":"VarianceScaling"},"kernel_regularizer":null,"activity_regularizer":null},"class_name":"Conv2D","inbound_nodes":[[["leaky_re_lu_LeakyReLU3",0,0,{}]]]},{"name":"batch_normalization_BatchNormalization4","config":{"axis":-1,"name":"batch_normalization_BatchNormalization4","scale":true,"center":true,"epsilon":0.001,"momentum":0.99,"trainable":true,"beta_constraint":null,"beta_initializer":{"config":{},"class_name":"Zeros"},"beta_regularizer":null,"gamma_constraint":null,"gamma_initializer":{"config":{},"class_name":"Ones"},"gamma_regularizer":null,"moving_mean_initializer":{"config":{},"class_name":"Zeros"},"moving_variance_initializer":{"config":{},"class_name":"Ones"}},"class_name":"BatchNormalization","inbound_nodes":[[["conv2d_Conv2D4",0,0,{}]]]},{"name":"leaky_re_lu_LeakyReLU4","config":{"name":"leaky_re_lu_LeakyReLU4","alpha":0.3,"trainable":true},"class_name":"LeakyReLU","inbound_nodes":[[["batch_normalization_BatchNormalization4",0,0,{}]]]},{"name":"conv2d_Conv2D5","config":{"name":"conv2d_Conv2D5","filters":16,"padding":"same","strides":[1,1],"use_bias":true,"trainable":true,"activation":"linear","data_format":"channels_last","kernel_size":[3,3],"dilation_rate":[1,1],"bias_constraint":null,"bias_initializer":{"config":{},"class_name":"Zeros"},"bias_regularizer":null,"kernel_constraint":null,"kernel_initializer":{"config":{"mode":"fan_avg","seed":null,"scale":1,"distribution":"normal"},"class_name":"VarianceScaling"},"kernel_regularizer":null,"activity_regularizer":null},"class_name":"Conv2D","inbound_nodes":[[["leaky_re_lu_LeakyReLU4",0,0,{}]]]},{"name":"batch_normalization_BatchNormalization5","config":{"axis":-1,"name":"batch_normalization_BatchNormalization5","scale":true,"center":true,"epsilon":0.001,"momentum":0.99,"trainable":true,"beta_constraint":null,"beta_initializer":{"config":{},"class_name":"Zeros"},"beta_regularizer":null,"gamma_constraint":null,"gamma_initializer":{"config":{},"class_name":"Ones"},"gamma_regularizer":null,"moving_mean_initializer":{"config":{},"class_name":"Zeros"},"moving_variance_initializer":{"config":{},"class_name":"Ones"}},"class_name":"BatchNormalization","inbound_nodes":[[["conv2d_Conv2D5",0,0,{}]]]},{"name":"add_Add2","config":{"name":"add_Add2","trainable":true},"class_name":"Add","inbound_nodes":[[["leaky_re_lu_LeakyReLU3",0,0,{}],["batch_normalization_BatchNormalization5",0,0,{}]]]},{"name":"leaky_re_lu_LeakyReLU5","config":{"name":"leaky_re_lu_LeakyReLU5","alpha":0.3,"trainable":true},"class_name":"LeakyReLU","inbound_nodes":[[["add_Add2",0,0,{}]]]},{"name":"conv2d_Conv2D6","config":{"name":"conv2d_Conv2D6","filters":16,"padding":"same","strides":[1,1],"use_bias":true,"trainable":true,"activation":"linear","data_format":"channels_last","kernel_size":[3,3],"dilation_rate":[1,1],"bias_constraint":null,"bias_initializer":{"config":{},"class_name":"Zeros"},"bias_regularizer":null,"kernel_constraint":null,"kernel_initializer":{"config":{"mode":"fan_avg","seed":null,"scale":1,"distribution":"normal"},"class_name":"VarianceScaling"},"kernel_regularizer":null,"activity_regularizer":null},"class_name":"Conv2D","inbound_nodes":[[["leaky_re_lu_LeakyReLU5",0,0,{}]]]},{"name":"batch_normalization_BatchNormalization6","config":{"axis":-1,"name":"batch_normalization_BatchNormalization6","scale":true,"center":true,"epsilon":0.001,"momentum":0.99,"trainable":true,"beta_constraint":null,"beta_initializer":{"config":{},"class_name":"Zeros"},"beta_regularizer":null,"gamma_constraint":null,"gamma_initializer":{"config":{},"class_name":"Ones"},"gamma_regularizer":null,"moving_mean_initializer":{"config":{},"class_name":"Zeros"},"moving_variance_initializer":{"config":{},"class_name":"Ones"}},"class_name":"BatchNormalization","inbound_nodes":[[["conv2d_Conv2D6",0,0,{}]]]},{"name":"leaky_re_lu_LeakyReLU6","config":{"name":"leaky_re_lu_LeakyReLU6","alpha":0.3,"trainable":true},"class_name":"LeakyReLU","inbound_nodes":[[["batch_normalization_BatchNormalization6",0,0,{}]]]},{"name":"conv2d_Conv2D7","config":{"name":"conv2d_Conv2D7","filters":16,"padding":"same","strides":[1,1],"use_bias":true,"trainable":true,"activation":"linear","data_format":"channels_last","kernel_size":[3,3],"dilation_rate":[1,1],"bias_constraint":null,"bias_initializer":{"config":{},"class_name":"Zeros"},"bias_regularizer":null,"kernel_constraint":null,"kernel_initializer":{"config":{"mode":"fan_avg","seed":null,"scale":1,"distribution":"normal"},"class_name":"VarianceScaling"},"kernel_regularizer":null,"activity_regularizer":null},"class_name":"Conv2D","inbound_nodes":[[["leaky_re_lu_LeakyReLU6",0,0,{}]]]},{"name":"batch_normalization_BatchNormalization7","config":{"axis":-1,"name":"batch_normalization_BatchNormalization7","scale":true,"center":true,"epsilon":0.001,"momentum":0.99,"trainable":true,"beta_constraint":null,"beta_initializer":{"config":{},"class_name":"Zeros"},"beta_regularizer":null,"gamma_constraint":null,"gamma_initializer":{"config":{},"class_name":"Ones"},"gamma_regularizer":null,"moving_mean_initializer":{"config":{},"class_name":"Zeros"},"moving_variance_initializer":{"config":{},"class_name":"Ones"}},"class_name":"BatchNormalization","inbound_nodes":[[["conv2d_Conv2D7",0,0,{}]]]},{"name":"add_Add3","config":{"name":"add_Add3","trainable":true},"class_name":"Add","inbound_nodes":[[["leaky_re_lu_LeakyReLU5",0,0,{}],["batch_normalization_BatchNormalization7",0,0,{}]]]},{"name":"leaky_re_lu_LeakyReLU7","config":{"name":"leaky_re_lu_LeakyReLU7","alpha":0.3,"trainable":true},"class_name":"LeakyReLU","inbound_nodes":[[["add_Add3",0,0,{}]]]},{"name":"conv2d_Conv2D8","config":{"name":"conv2d_Conv2D8","filters":16,"padding":"same","strides":[1,1],"use_bias":true,"trainable":true,"activation":"linear","data_format":"channels_last","kernel_size":[3,3],"dilation_rate":[1,1],"bias_constraint":null,"bias_initializer":{"config":{},"class_name":"Zeros"},"bias_regularizer":null,"kernel_constraint":null,"kernel_initializer":{"config":{"mode":"fan_avg","seed":null,"scale":1,"distribution":"normal"},"class_name":"VarianceScaling"},"kernel_regularizer":null,"activity_regularizer":null},"class_name":"Conv2D","inbound_nodes":[[["leaky_re_lu_LeakyReLU7",0,0,{}]]]},{"name":"batch_normalization_BatchNormalization8","config":{"axis":-1,"name":"batch_normalization_BatchNormalization8","scale":true,"center":true,"epsilon":0.001,"momentum":0.99,"trainable":true,"beta_constraint":null,"beta_initializer":{"config":{},"class_name":"Zeros"},"beta_regularizer":null,"gamma_constraint":null,"gamma_initializer":{"config":{},"class_name":"Ones"},"gamma_regularizer":null,"moving_mean_initializer":{"config":{},"class_name":"Zeros"},"moving_variance_initializer":{"config":{},"class_name":"Ones"}},"class_name":"BatchNormalization","inbound_nodes":[[["conv2d_Conv2D8",0,0,{}]]]},{"name":"leaky_re_lu_LeakyReLU8","config":{"name":"leaky_re_lu_LeakyReLU8","alpha":0.3,"trainable":true},"class_name":"LeakyReLU","inbound_nodes":[[["batch_normalization_BatchNormalization8",0,0,{}]]]},{"name":"conv2d_Conv2D9","config":{"name":"conv2d_Conv2D9","filters":16,"padding":"same","strides":[1,1],"use_bias":true,"trainable":true,"activation":"linear","data_format":"channels_last","kernel_size":[3,3],"dilation_rate":[1,1],"bias_constraint":null,"bias_initializer":{"config":{},"class_name":"Zeros"},"bias_regularizer":null,"kernel_constraint":null,"kernel_initializer":{"config":{"mode":"fan_avg","seed":null,"scale":1,"distribution":"normal"},"class_name":"VarianceScaling"},"kernel_regularizer":null,"activity_regularizer":null},"class_name":"Conv2D","inbound_nodes":[[["leaky_re_lu_LeakyReLU8",0,0,{}]]]},{"name":"batch_normalization_BatchNormalization9","config":{"axis":-1,"name":"batch_normalization_BatchNormalization9","scale":true,"center":true,"epsilon":0.001,"momentum":0.99,"trainable":true,"beta_constraint":null,"beta_initializer":{"config":{},"class_name":"Zeros"},"beta_regularizer":null,"gamma_constraint":null,"gamma_initializer":{"config":{},"class_name":"Ones"},"gamma_regularizer":null,"moving_mean_initializer":{"config":{},"class_name":"Zeros"},"moving_variance_initializer":{"config":{},"class_name":"Ones"}},"class_name":"BatchNormalization","inbound_nodes":[[["conv2d_Conv2D9",0,0,{}]]]},{"name":"add_Add4","config":{"name":"add_Add4","trainable":true},"class_name":"Add","inbound_nodes":[[["leaky_re_lu_LeakyReLU7",0,0,{}],["batch_normalization_BatchNormalization9",0,0,{}]]]},{"name":"leaky_re_lu_LeakyReLU9","config":{"name":"leaky_re_lu_LeakyReLU9","alpha":0.3,"trainable":true},"class_name":"LeakyReLU","inbound_nodes":[[["add_Add4",0,0,{}]]]},{"name":"conv2d_Conv2D10","config":{"name":"conv2d_Conv2D10","filters":16,"padding":"same","strides":[1,1],"use_bias":true,"trainable":true,"activation":"linear","data_format":"channels_last","kernel_size":[3,3],"dilation_rate":[1,1],"bias_constraint":null,"bias_initializer":{"config":{},"class_name":"Zeros"},"bias_regularizer":null,"kernel_constraint":null,"kernel_initializer":{"config":{"mode":"fan_avg","seed":null,"scale":1,"distribution":"normal"},"class_name":"VarianceScaling"},"kernel_regularizer":null,"activity_regularizer":null},"class_name":"Conv2D","inbound_nodes":[[["leaky_re_lu_LeakyReLU9",0,0,{}]]]},{"name":"batch_normalization_BatchNormalization10","config":{"axis":-1,"name":"batch_normalization_BatchNormalization10","scale":true,"center":true,"epsilon":0.001,"momentum":0.99,"trainable":true,"beta_constraint":null,"beta_initializer":{"config":{},"class_name":"Zeros"},"beta_regularizer":null,"gamma_constraint":null,"gamma_initializer":{"config":{},"class_name":"Ones"},"gamma_regularizer":null,"moving_mean_initializer":{"config":{},"class_name":"Zeros"},"moving_variance_initializer":{"config":{},"class_name":"Ones"}},"class_name":"BatchNormalization","inbound_nodes":[[["conv2d_Conv2D10",0,0,{}]]]},{"name":"leaky_re_lu_LeakyReLU10","config":{"name":"leaky_re_lu_LeakyReLU10","alpha":0.3,"trainable":true},"class_name":"LeakyReLU","inbound_nodes":[[["batch_normalization_BatchNormalization10",0,0,{}]]]},{"name":"conv2d_Conv2D11","config":{"name":"conv2d_Conv2D11","filters":16,"padding":"same","strides":[1,1],"use_bias":true,"trainable":true,"activation":"linear","data_format":"channels_last","kernel_size":[3,3],"dilation_rate":[1,1],"bias_constraint":null,"bias_initializer":{"config":{},"class_name":"Zeros"},"bias_regularizer":null,"kernel_constraint":null,"kernel_initializer":{"config":{"mode":"fan_avg","seed":null,"scale":1,"distribution":"normal"},"class_name":"VarianceScaling"},"kernel_regularizer":null,"activity_regularizer":null},"class_name":"Conv2D","inbound_nodes":[[["leaky_re_lu_LeakyReLU10",0,0,{}]]]},{"name":"batch_normalization_BatchNormalization11","config":{"axis":-1,"name":"batch_normalization_BatchNormalization11","scale":true,"center":true,"epsilon":0.001,"momentum":0.99,"trainable":true,"beta_constraint":null,"beta_initializer":{"config":{},"class_name":"Zeros"},"beta_regularizer":null,"gamma_constraint":null,"gamma_initializer":{"config":{},"class_name":"Ones"},"gamma_regularizer":null,"moving_mean_initializer":{"config":{},"class_name":"Zeros"},"moving_variance_initializer":{"config":{},"class_name":"Ones"}},"class_name":"BatchNormalization","inbound_nodes":[[["conv2d_Conv2D11",0,0,{}]]]},{"name":"add_Add5","config":{"name":"add_Add5","trainable":true},"class_name":"Add","inbound_nodes":[[["leaky_re_lu_LeakyReLU9",0,0,{}],["batch_normalization_BatchNormalization11",0,0,{}]]]},{"name":"leaky_re_lu_LeakyReLU11","config":{"name":"leaky_re_lu_LeakyReLU11","alpha":0.3,"trainable":true},"class_name":"LeakyReLU","inbound_nodes":[[["add_Add5",0,0,{}]]]},{"name":"conv2d_Conv2D13","config":{"name":"conv2d_Conv2D13","filters":2,"padding":"valid","strides":[1,1],"use_bias":true,"trainable":true,"activation":"relu","data_format":"channels_last","kernel_size":[1,1],"dilation_rate":[1,1],"bias_constraint":null,"bias_initializer":{"config":{},"class_name":"Zeros"},"bias_regularizer":null,"kernel_constraint":null,"kernel_initializer":{"config":{"mode":"fan_avg","seed":null,"scale":1,"distribution":"normal"},"class_name":"VarianceScaling"},"kernel_regularizer":null,"activity_regularizer":null},"class_name":"Conv2D","inbound_nodes":[[["leaky_re_lu_LeakyReLU11",0,0,{}]]]},{"name":"batch_normalization_BatchNormalization13","config":{"axis":-1,"name":"batch_normalization_BatchNormalization13","scale":true,"center":true,"epsilon":0.001,"momentum":0.99,"trainable":true,"beta_constraint":null,"beta_initializer":{"config":{},"class_name":"Zeros"},"beta_regularizer":null,"gamma_constraint":null,"gamma_initializer":{"config":{},"class_name":"Ones"},"gamma_regularizer":null,"moving_mean_initializer":{"config":{},"class_name":"Zeros"},"moving_variance_initializer":{"config":{},"class_name":"Ones"}},"class_name":"BatchNormalization","inbound_nodes":[[["conv2d_Conv2D13",0,0,{}]]]},{"name":"conv2d_Conv2D12","config":{"name":"conv2d_Conv2D12","filters":2,"padding":"valid","strides":[1,1],"use_bias":true,"trainable":true,"activation":"linear","data_format":"channels_last","kernel_size":[1,1],"dilation_rate":[1,1],"bias_constraint":null,"bias_initializer":{"config":{},"class_name":"Zeros"},"bias_regularizer":null,"kernel_constraint":null,"kernel_initializer":{"config":{"mode":"fan_avg","seed":null,"scale":1,"distribution":"normal"},"class_name":"VarianceScaling"},"kernel_regularizer":null,"activity_regularizer":null},"class_name":"Conv2D","inbound_nodes":[[["leaky_re_lu_LeakyReLU11",0,0,{}]]]},{"name":"leaky_re_lu_LeakyReLU13","config":{"name":"leaky_re_lu_LeakyReLU13","alpha":0.3,"trainable":true},"class_name":"LeakyReLU","inbound_nodes":[[["batch_normalization_BatchNormalization13",0,0,{}]]]},{"name":"batch_normalization_BatchNormalization12","config":{"axis":-1,"name":"batch_normalization_BatchNormalization12","scale":true,"center":true,"epsilon":0.001,"momentum":0.99,"trainable":true,"beta_constraint":null,"beta_initializer":{"config":{},"class_name":"Zeros"},"beta_regularizer":null,"gamma_constraint":null,"gamma_initializer":{"config":{},"class_name":"Ones"},"gamma_regularizer":null,"moving_mean_initializer":{"config":{},"class_name":"Zeros"},"moving_variance_initializer":{"config":{},"class_name":"Ones"}},"class_name":"BatchNormalization","inbound_nodes":[[["conv2d_Conv2D12",0,0,{}]]]},{"name":"flatten_Flatten2","config":{"name":"flatten_Flatten2","trainable":true},"class_name":"Flatten","inbound_nodes":[[["leaky_re_lu_LeakyReLU13",0,0,{}]]]},{"name":"leaky_re_lu_LeakyReLU12","config":{"name":"leaky_re_lu_LeakyReLU12","alpha":0.3,"trainable":true},"class_name":"LeakyReLU","inbound_nodes":[[["batch_normalization_BatchNormalization12",0,0,{}]]]},{"name":"dense_Dense2","config":{"name":"dense_Dense2","units":16,"use_bias":true,"trainable":true,"activation":"linear","bias_constraint":null,"bias_initializer":{"config":{},"class_name":"Zeros"},"bias_regularizer":null,"kernel_constraint":null,"kernel_initializer":{"config":{"mode":"fan_avg","seed":null,"scale":1,"distribution":"normal"},"class_name":"VarianceScaling"},"kernel_regularizer":null,"activity_regularizer":null},"class_name":"Dense","inbound_nodes":[[["flatten_Flatten2",0,0,{}]]]},{"name":"flatten_Flatten1","config":{"name":"flatten_Flatten1","trainable":true},"class_name":"Flatten","inbound_nodes":[[["leaky_re_lu_LeakyReLU12",0,0,{}]]]},{"name":"dense_Dense3","config":{"name":"dense_Dense3","units":1,"use_bias":true,"trainable":true,"activation":"tanh","bias_constraint":null,"bias_initializer":{"config":{},"class_name":"Zeros"},"bias_regularizer":null,"kernel_constraint":null,"kernel_initializer":{"config":{"mode":"fan_avg","seed":null,"scale":1,"distribution":"normal"},"class_name":"VarianceScaling"},"kernel_regularizer":null,"activity_regularizer":null},"class_name":"Dense","inbound_nodes":[[["dense_Dense2",0,0,{}]]]},{"name":"dense_Dense1","config":{"name":"dense_Dense1","units":24,"use_bias":true,"trainable":true,"activation":"softmax","bias_constraint":null,"bias_initializer":{"config":{},"class_name":"Zeros"},"bias_regularizer":null,"kernel_constraint":null,"kernel_initializer":{"config":{"mode":"fan_avg","seed":null,"scale":1,"distribution":"normal"},"class_name":"VarianceScaling"},"kernel_regularizer":null,"activity_regularizer":null},"class_name":"Dense","inbound_nodes":[[["flatten_Flatten1",0,0,{}]]]}],"input_layers":[["input1",0,0]],"output_layers":[["dense_Dense3",0,0],["dense_Dense1",0,0]]},"backend":"tensor_flow.js","class_name":"Model","keras_version":"tfjs-layers 4.22.0"}}